model/model.pth (torch, 17216 bytes, 4 tensors)

linear1.weight f4 [256, 11]
000000 26 55 c5 3e e9 bd e7 3d 36 89 91 3e 5e d6 5a be
       0.38541526 0.11315519 0.28424996 -0.21370837
000010 f6 be e8 3d be 08 3a be ab b7 cd 3d e9 cf 94 3e
       0.11364548 -0.18167397 0.100447975 0.29064873
000020 8a ed 91 bc 09 79 d4 3e 23 8c ef 3e 53 a1 94 be
       -0.017813463 0.41498592 0.46786603 -0.2902933
000030 2e ed ac 3e 04 40 8f 3e a1 d2 dc 3d 70 fe a1 bd
       0.33774704 0.27978528 0.10782362 -0.07909858
000040 1e 00 a1 bd a5 7b 78 be b2 08 ad bd ec 72 72 3d
       -0.078613505 -0.24265917 -0.08448924 0.05919163
000050 ed 5b bb 3e 7c 17 bc 3e 14 9f 40 be d7 f9 22 3e
       0.3659357 0.36736667 -0.18810683 0.15915619
000060 bc 19 24 be 2a 31 d4 bd 87 f8 a8 be 41 ea 11 3f
       -0.16025442 -0.1036094 -0.3300211 0.5699807
000070 86 7a 6f 3c 26 2d e4 ba 68 52 ea 3d 68 73 3a 3e
       0.014616614 -0.0017408475 0.11441499 0.18208086
000080 db 88 5d be 59 d6 a7 3e 08 98 30 bf 71 76 22 3e
       -0.21634237 0.32780722 -0.6898198 0.15865494
000090 5d 88 5e 3e 74 c1 ee bd b7 bb b7 bd cf eb 29 3d
       0.21731706 -0.11657992 -0.08971351 0.04148465
0000a0 b6 a3 d8 bd bc 09 41 bd 34 14 63 3e d5 e0 21 be
       -0.105781004 -0.047128424 0.22175676 -0.15808423
0000b0 6b e7 4f 3e 70 4c c5 3d e9 89 c0 be 0e 24 54 be
       0.20303123 0.0963372 -0.37605217 -0.20716879
0000c0 9f ba 9c bd 87 84 29 be c0 64 21 be ed 30 b3 3e
       -0.07652783 -0.16554461 -0.1576109 0.34998265
0000d0 99 db 98 3e e4 d5 ca 3e bc 29 a7 3e 47 d9 97 be
       0.2985504 0.3961631 0.32649028 -0.29657957
0000e0 5d 63 d6 bd d0 dc 5e be 3f 2a cb be 7d 9a 08 3d
       -0.10468171 -0.21763921 -0.3968067 0.033350457
0000f0 c9 cf 62 3d 85 fc e9 3d 45 c7 ec be 8c ba aa be
       0.05537394 0.114251174 -0.4624578 -0.3334545
000100 e7 0a 73 3e 72 22 66 bd 87 e3 1d 3e fd 86 00 3e
       0.23734628 -0.056185193 0.15418826 0.12551494
000110 ab 58 82 be 61 7f e5 3e af 2b 16 3f ff cf 4b be
       -0.25458273 0.44823745 0.58660406 -0.19903563
000120 ee 39 b4 bd 5c f8 d2 be 79 6c 18 bf 94 92 4e bd
       -0.08800112 -0.41205108 -0.59540516 -0.050432757
000130 4b 1d 4b 3e f2 24 d5 3e 64 a5 03 bf 92 78 81 3d
       0.19835393 0.4162975 -0.5142424 0.06321825
000140 e0 3e ad be 3d 62 e6 be c3 17 15 3e eb 48 ce 3c
       -0.33837032 -0.44996825 0.14559846 0.025181254
000150 5c aa 22 3e 9c 78 29 3e 97 91 d6 be 8e 28 91 be
       0.158853 0.16549915 -0.4190795 -0.28351253
000160 a1 10 a5 3e a5 b4 a4 3e e9 0e e0 be 3d bc c7 3d
       0.3223925 0.3216907 -0.43761376 0.097527005
000170 d9 9d e1 be 1a 43 bc be 45 d2 44 3e 1d b8 a4 be
       -0.4406574 -0.36769944 0.19220836 -0.32171717
000180 d0 5f b4 3e f6 ad 76 3e 78 d5 6a be 5a 22 53 3e
       0.3522935 0.24089798 -0.22932994 0.20618573
000190 cc f7 96 3d ba fc 54 3d 7e 6a 6f 3e 21 28 da be
       0.07371482 0.05199883 0.23380467 -0.4260874
0001a0 21 70 02 3e 24 e5 da be ca dc 22 be fc 01 01 3f
       0.12738086 -0.42752945 -0.15904537 0.5039365
0001b0 40 c8 df 3e 06 2b d6 3e 42 f7 e6 bd 50 c3 50 bd
       0.43707466 0.418297 -0.112776294 -0.050967515
0001c0 c5 1d 15 3c 5f d3 44 3e dc c3 52 be 5f 68 91 be
       0.009101336 0.19221257 -0.20582527 -0.2839994
0001d0 58 a9 3c bd 9e be e3 bc 89 fb 8c bd 25 54 a7 3b
       -0.046059936 -0.027800854 -0.06883914 0.0051064664
0001e0 d1 5c b6 bd d6 e9 a0 3e eb 0b f0 3e 35 c9 d8 3d
       -0.08904422 0.31428403 0.46884093 0.10585252
0001f0 7f 22 3c bd a9 fa dc be b7 da ba bd 25 c2 e9 bd
       -0.045931336 -0.4315999 -0.09123748 -0.11413983
000200 11 bc 43 3e d3 a4 05 3f e5 d5 98 3e 76 ff 94 3e
       0.1911471 0.52204627 0.2985069 0.2910115
000210 f3 92 d1 3c 91 cf 88 3d 4c f2 04 3f 03 e0 c9 be
       0.025582766 0.06680215 0.51932216 -0.3942872
000220 c4 1b e5 bd 59 74 ef be df 0d 94 3e 4d ec b1 3e
       -0.111869365 -0.46768454 0.28916833 0.34750596
000230 d9 0b cf 3d ef a2 02 3f 75 c0 92 be e1 a7 c4 3e
       0.10109682 0.51029867 -0.28662458 0.3840933
000240 a1 87 b9 3d 1b 3f b6 3e 94 6e f4 bd 15 a3 11 be
       0.09059072 0.3559502 -0.119351536 -0.14222367
000250 a4 28 a9 bd ac fe 1a be 78 ad 71 3d 51 bb f1 3d
       -0.08259705 -0.15136212 0.059003323 0.11803306
000260 1c 58 90 3e 4d bf b8 3e cc 3e 94 be 28 26 97 be
       0.28192222 0.3608345 -0.2895416 -0.29521298
000270 08 b5 8f be 72 3c 62 be 78 2c 25 3d 83 80 6a be
       -0.28067803 -0.2209337 0.04032561 -0.22900586
000280 5c c0 71 3e e7 3e 98 be 62 95 15 be f1 d4 89 be
       0.23608536 -0.2973549 -0.14607766 -0.26920274
000290 f9 4e 96 be 20 c7 69 be 30 91 ff be c1 c5 12 3e
       -0.29357126 -0.22829866 -0.49915457 0.1433325
0002a0 bb 52 a8 be 31 f8 c4 3d 6f 1b 25 be 25 65 c9 3e
       -0.32875618 0.09617651 -0.16123746 0.3933498
0002b0 49 ba 0f bc 7c 76 c8 be 9d ac fc bc 2c 09 a5 3e
       -0.008772441 -0.39152896 -0.030844027 0.3223356
0002c0 39 73 e1 3d df b1 24 3e 46 99 89 3c 91 2e 1e be
       0.11008305 0.16083477 0.01679672 -0.15447451
0002d0 4d 49 b9 bc 12 de 79 be a2 e5 b7 be 6d 2f 2a be
       -0.02261796 -0.2440112 -0.35917383 -0.16619654
0002e0 f3 6b 35 3e bd cc 4b be 33 36 b8 be d0 66 50 3c
       0.1771696 -0.1990232 -0.3597885 0.012719825
0002f0 54 95 0e 3e a4 89 d6 bd 44 19 18 3d 17 2b 9d be
       0.13924152 -0.104754716 0.03713347 -0.30696937
000300 af ff 76 3e a3 b2 82 be c3 d5 52 3e 85 68 80 be
       0.24120973 -0.25526914 0.20589356 -0.25079742
000310 4a d9 92 be f4 08 c5 3e a7 7e a6 bd 18 e8 c0 3e
       -0.28681403 0.38483393 -0.08129626 0.37677073
000320 ed 68 ea be 05 1f 10 be 5d 4b f2 be bc 8c 7a 3e
       -0.45783177 -0.14074333 -0.47323123 0.24467748
000330 a5 bf d2 3e 3a 0f 47 3e de a9 ac 3e 73 b7 3f be
       0.41161838 0.19439402 0.33723348 -0.18722324
000340 9a 43 dd be 58 fc 64 3e e0 2b 15 bf 4f b8 12 3f
       -0.43215638 0.22361887 -0.5827007 0.5731248
000350 95 c6 20 bd 31 1a 74 be 70 cb 35 be 90 f9 8d be
       -0.039251883 -0.23838116 -0.17753386 -0.27729464
000360 8f 11 69 3d b4 0f 6d 3e 0b 9c 8a 3e 78 a1 8d 3e
       0.05690151 0.23150522 0.27072176 0.27662253
000370 f7 4c 1d bf 4a 1f 24 3f 1a 81 e1 3c 31 9e 0f 3e
       -0.61445564 0.64110243 0.02752738 0.14025189
000380 50 31 16 bd 21 5c bd be d1 4e fe be 6a 0c b1 3e
       -0.03666812 -0.3698435 -0.49669507 0.34579784
000390 f6 26 1d 3e 4c 6d e2 be 75 51 3e be 9e 73 7d 3e
       0.15346894 -0.44224012 -0.18585761 0.24751136
0003a0 87 1a 56 be d1 b2 a4 be a2 96 24 be 52 d8 b7 bd
       -0.20908557 -0.32167676 -0.16073087 -0.08976807
0003b0 25 36 a2 be 51 91 e4 3e 7c d1 88 be 4c 9a cd be
       -0.31681934 0.44642118 -0.26722324 -0.40156782
0003c0 6d 2d ea be 1c 0e b7 3e bf 31 fe 3d 42 0d 1a 3e
       -0.45737782 0.35752952 0.12411832 0.1504412
0003d0 43 9a b3 3d ad 31 92 be 79 66 14 3e 8e f4 75 be
       0.087696575 -0.28553525 0.14492215 -0.24019071
0003e0 11 74 43 3e 1c 1f 8e 3e aa aa 9e be 3e b6 38 bf
       0.19087245 0.2775811 -0.3098958 -0.7215308
0003f0 ef 1f 3f 3e 12 a9 d5 be be 5f f8 3e 84 db 8d be
       0.18664525 -0.41730553 0.48510545 -0.2770654

linear1.bias f4 [256]
000000 a6 00 81 be fb 2c 8e 3e ca 45 f8 bd c7 e1 7a be
       -0.25195807 0.27768692 -0.12122686 -0.2450019
000010 c1 3e 91 be 41 0f 00 3e 4e 60 c8 bd 9f 5e 2b 3e
       -0.2836819 0.12505819 -0.09783994 0.16735314
000020 cd ce 0f bd 37 00 03 be 3f 95 5d be 90 23 6e be
       -0.03510933 -0.1279305 -0.21638964 -0.23255754
000030 aa d8 4f bd 95 3e 45 be 49 00 2c be 00 3f 33 be
       -0.050743736 -0.19262154 -0.16796984 -0.17504501
000040 c4 b0 99 3c 02 c2 de bd db 7a 8f bd 2d 25 8f bc
       0.018761046 -0.10876848 -0.07005855 -0.017473781
000050 4f 3a 99 3d e7 e4 c7 bd 33 09 e6 bd 18 8a f7 3e
       0.074818246 -0.097604565 -0.11232223 0.48347545
000060 85 8d 9a bc a7 1b 32 3e 1c 31 37 3c ef 30 12 be
       -0.01886631 0.17393361 0.011181142 -0.14276479
000070 44 eb f6 bd 78 84 e0 3c 71 97 76 bc d2 93 89 bd
       -0.12056592 0.027406916 -0.015050755 -0.067176476
000080 a9 79 f4 3d a1 3a 97 be bd 5d 89 be 37 ea 60 be
       0.11937267 -0.29536918 -0.2682933 -0.21964346
000090 8a c5 9c be bf 84 c0 bd af 23 08 3f b1 7c ab 3d
       -0.3061946 -0.09400319 0.5317945 0.083733924
0000a0 62 11 1f 3d d9 be 2b 3e bc 7e 61 be 18 72 a9 be
       0.038834937 0.16772021 -0.22021002 -0.3309486
0000b0 ad f7 a8 bd 31 f1 9e 3c 62 3d f5 be 6f 93 86 be
       -0.082503654 0.019402118 -0.47898394 -0.26284358
0000c0 42 e5 de 3e 24 d3 ac 3c c1 ee 18 be 89 15 76 bd
       0.43534285 0.021096773 -0.14934827 -0.06007913
0000d0 2f f2 b0 be 76 47 a1 be 3e 16 a2 bd 98 25 1b be
       -0.3455977 -0.31499833 -0.079143986 -0.1515106
0000e0 3c f5 d7 be bd 65 95 3e 7a c4 3e bd b7 89 05 be
       -0.42179286 0.29179183 -0.046574093 -0.13040815
0000f0 a8 e4 91 be 8f d8 89 be c0 b8 30 3e fa 62 be bd
       -0.28494763 -0.26923034 0.17257977 -0.09296222
000100 b9 66 c9 3d 7f 07 b7 3d 6d 3e a4 bd b8 85 5e 3d
       0.09834046 0.08936977 -0.08019719 0.054326743
000110 aa 66 04 be d8 10 85 bd 2c b7 76 bd d8 31 00 be
       -0.12929788 -0.06497353 -0.06023328 -0.12519014
000120 20 95 4a be 56 5f 7c be c6 61 d7 be 22 3f c7 3a
       -0.19783449 -0.24645743 -0.42066783 0.001520131
000130 f8 fe 87 bd 68 10 35 bd 01 8e 1f be 7c f5 0a 3e
       -0.06640428 -0.0442051 -0.15581514 0.13570207
000140 3c cf 55 be 9c e4 94 be 91 fd 81 be ea 61 d2 be
       -0.20879835 -0.29080665 -0.25388768 -0.41090328
000150 09 f4 39 be a5 a0 83 3e 9d d5 7c 3d 05 32 14 be
       -0.18159498 0.257085 0.061727155 -0.14472206
000160 d7 d1 e9 bd c2 81 94 be 1b c8 97 3e 6e 8d e1 bd
       -0.11416977 -0.29005247 0.29644856 -0.11013304
000170 5f 1c 87 bc e8 6b 92 bc 53 b2 e6 bd e4 02 7b 3d
       -0.01649302 -0.01787372 -0.112644814 0.061282054
000180 43 f1 17 bd ff 0a ba 3d 4b e5 07 3b d2 96 f3 be
       -0.03709532 0.090841286 0.0020736034 -0.47576004
000190 39 05 7e be 86 f7 4c be 4d e3 f5 bd 9f 62 58 3e
       -0.2480668 -0.20016298 -0.12006245 0.21131371
0001a0 dc 28 b9 bd 08 85 97 3c e8 2b 0d be dd 21 4c bd
       -0.090409964 0.018496051 -0.1378628 -0.049836982
0001b0 ac ad d0 3e 7b 18 65 be 42 33 13 be 16 7a 40 be
       0.407575 -0.2237262 -0.14375022 -0.18796572
0001c0 50 8f c3 3e cf 7e 7d be 45 14 0b be 26 48 0b be
       0.38195276 -0.24755405 -0.13581951 -0.13601741
0001d0 05 f6 f3 3e 1a 99 6e bd a6 c6 69 be 56 04 1f 3f
       0.47648636 -0.058251478 -0.22829685 0.6211599
0001e0 61 40 10 be c6 d8 18 3e d4 a7 68 bd c6 e2 0b be
       -0.14087059 0.14926443 -0.05680068 -0.13660726
0001f0 e2 2f ac 3c 54 5c 29 3d 35 6f 41 3e 97 38 7e be
       0.021018926 0.041347817 0.18890078 -0.24826275
000200 ff 51 15 3f 3c aa 57 be 72 e5 25 be df e9 75 3d
       0.5832824 -0.21061033 -0.16200808 0.06003749
000210 12 e0 7b 3b b7 5f 56 be 79 88 5e be 22 7c c6 be
       0.0038433117 -0.2093495 -0.21731748 -0.3876658
000220 fa a6 1c 3d 5a 6f 17 be 03 f0 56 be 41 d9 96 3b
       0.03824518 -0.14788571 -0.20989995 0.0046035354
000230 0d 03 87 be 6a 4e 8e be 98 7b 22 be 3a 68 1e be
       -0.26369515 -0.277942 -0.1586746 -0.15469447
000240 3b 28 1d 3e 07 fe 4a be de 6c 10 3f 7c 25 c3 bd
       0.15347378 -0.19823466 0.5641612 -0.09528634
000250 b2 87 7f 3d 6c c7 59 3e a0 eb da be 38 e5 59 be
       0.06238527 0.2126748 -0.42757893 -0.21278846
000260 6b 23 93 bc 20 b7 73 3d 51 fc e8 bd da 69 97 be
       -0.017961225 0.059500813 -0.113762505 -0.29572946
000270 ab 4b b3 3b 6d 5b 2f 3b d0 e3 70 bd 84 0c 85 3d
       0.005471667 0.0026757375 -0.05881101 0.06496528
000280 82 bb 74 be 59 a0 ab be 78 0c 0a be b9 a9 b1 bd
       -0.23899654 -0.33520773 -0.13481319 -0.0867495
000290 a5 d8 03 3f bf ca ab be 86 79 14 be c5 f0 8d be
       0.5150245 -0.3355312 -0.14499483 -0.27722755
0002a0 65 b1 0f be 19 7c e9 bd 48 72 8a be ef 58 de bd
       -0.14032514 -0.11400623 -0.27040315 -0.108568065
0002b0 bf d7 d4 bc 9f da fe 3b cb 04 99 be 8e 6f 15 3e
       -0.025981782 0.0077775265 -0.2988647 0.14593336
0002c0 0e 33 a9 3c ba 1e e7 3d 6b ff 8b bd b4 a6 28 be
       0.020654228 0.112851575 -0.068358265 -0.16469842
0002d0 f9 3e 84 be e2 41 0b be 2a 48 61 3e 38 94 18 be
       -0.25829294 -0.13599351 0.22000185 -0.14900291
0002e0 ff cb 8b 3e 81 84 8e be 90 1c 07 bd 94 c7 d6 3e
       0.27304074 -0.27835467 -0.032986224 0.4194914
0002f0 74 b2 6d be 82 e9 98 3e b6 dc 20 be f2 1d d2 be
       -0.23212606 0.29865652 -0.15709195 -0.4103847
000300 09 3c 82 be 83 35 9c bd 19 d3 43 3d 35 56 b5 3c
       -0.25436428 -0.07627394 0.04780874 0.022135833
000310 24 00 03 bd af 02 77 be cc 3d a7 be b0 50 00 be
       -0.031982556 -0.24122117 -0.32664335 -0.1253078
000320 64 24 88 bc 3a e7 67 3d 46 a4 28 3e 55 54 20 bd
       -0.016618915 0.056617 0.16468915 -0.039142925
000330 55 c1 47 be 25 04 47 be c6 06 08 bd 9b d4 46 3e
       -0.19507344 -0.19435175 -0.033209585 0.1941704
000340 d9 ff a0 be 89 73 27 be e1 5e b7 be b4 57 4a bd
       -0.31445196 -0.16352667 -0.35814574 -0.049400046
000350 10 fa 0a be f4 b8 31 be 92 b1 a4 3d f2 48 a4 3d
       -0.13571954 -0.1735571 0.08041681 0.08021726
000360 1d 67 83 be e0 67 88 be 3c d3 f0 3d a8 c2 00 3e
       -0.25664607 -0.2664175 0.1175904 0.12574255
000370 e6 f0 c0 be f1 5a 42 bd 80 9d 1a 3e 9f 49 bf 3e
       -0.3768379 -0.04745001 0.15099144 0.37360856
000380 cc 80 e0 bd 2a 0b c8 bd 4c db 67 3c 12 ec a5 bc
       -0.10962066 -0.097677544 0.014151406 -0.020254169
000390 49 7a 17 3f e1 29 1a be 59 ae e4 3e 8d 3a 98 bd
       0.5917097 -0.15055038 0.44664267 -0.07433043
0003a0 fe 4e e6 bd d9 5e a2 3d 0c 1f c1 bd 53 09 51 be
       -0.11245535 0.07928247 -0.0942975 -0.20413713
0003b0 38 5f 0c 3e 33 a5 2a be e7 7d c2 bd ca 6a 9c bd
       0.13708198 -0.16664581 -0.0949667 -0.07637556
0003c0 ea cd 63 be f9 e5 c8 bd 16 4c e8 bd e4 0a 29 be
       -0.22246519 -0.09809489 -0.11342637 -0.1650806
0003d0 70 71 d6 3d 58 70 99 be b8 e8 5a be 2d 85 50 be
       0.10470855 -0.29968524 -0.21377838 -0.20363303
0003e0 7b 85 72 3e e7 18 63 bd 7a 1c d0 bc de 8c a3 bd
       0.23683731 -0.05544367 -0.025404204 -0.07985853
0003f0 3a 35 51 3e 13 b5 67 bb 33 27 b7 3c 3a 8c 2b be
       0.2043046 -0.0035355731 0.022357559 -0.16752711

linear2.weight f4 [3, 256]
000000 51 96 2f be a7 7e a1 3d d9 76 1e 3e 9d c6 ef ba
       -0.17147185 0.07885485 0.15475024 -0.0018293444
000010 3b b6 f1 bd 41 14 df 3d 46 20 c0 bd ef 55 a0 bd
       -0.11802336 0.10892535 -0.09381156 -0.078288905
000020 af 3b e5 bd b3 b0 a3 be db 1a fe 3b 00 31 93 be
       -0.11193024 -0.31970748 0.0077546663 -0.28748322
000030 b4 72 aa be 24 07 a1 bd 80 2e 04 bc 0c 9e 35 3e
       -0.33290637 -0.0786269 -0.008067727 0.17736071
000040 52 a9 cd 3d 1d f0 81 3c 4f 4a 85 be 19 03 0b be
       0.10042061 0.015861565 -0.26033255 -0.135754
000050 24 2d 79 3e 28 8d 97 3e b6 f6 af bd 05 98 35 3e
       0.24333626 0.2959988 -0.08591978 0.17733772
000060 ab ac b2 3e 5c f4 02 3f 87 da c7 be 95 b4 19 be
       0.3489736 0.5115411 -0.3903391 -0.15010293
000070 17 9c 1d 3d 55 29 45 bd a4 69 38 3e dc 7f 4b bd
       0.038478937 -0.04813512 0.18009049 -0.049682483
000080 70 a0 06 3d 56 5b f8 bc 2a 01 5a be e0 ba 87 bd
       0.03286785 -0.03031699 -0.21289507 -0.066274405
000090 15 b5 91 be da 2a ae 3c 19 55 b9 3e c4 49 af 3c
       -0.28458467 0.021260668 0.36197737 0.021397479
0000a0 5d 4e e9 be bd 1a b5 be 7c 13 93 be fa 8f da be
       -0.455676 -0.35371962 -0.28725803 -0.4268797
0000b0 e9 33 0f bf 62 35 fa be e2 3e 60 bb 7a 48 e6 be
       -0.55938584 -0.48868853 -0.0034217169 -0.4497717
0000c0 fe 24 ce 3e 5e 81 e1 3e 1d 0e ca be f3 4f 52 bc
       0.40262598 0.44044012 -0.39463893 -0.012836444
0000d0 4c 10 2a bc 7e ea c8 be 75 47 e8 be 22 bb 92 be
       -0.010379862 -0.39241403 -0.45367017 -0.28658396
0000e0 56 73 a6 be 9b c3 3e 3d 91 2b 08 bf 15 2d 91 be
       -0.3250987 0.046573263 -0.5319148 -0.28354707
0000f0 3e e4 0e bf bb 8d 2e 3c 85 7f 2f 3f ee a2 55 be
       -0.5581702 0.010653908 0.68553954 -0.20862934
000100 08 05 95 3d 12 92 04 3f d0 14 2f be 6c 5f ed 3e
       0.0727635 0.51785386 -0.17097783 0.46361864
000110 69 1e ee bd 8d f6 f6 bc c1 ec a8 3d 08 c2 34 be
       -0.11626894 -0.030146861 0.08248282 -0.17652142
000120 f4 42 99 bd 06 9c c0 bc c2 f2 ef bd 9f c3 7e be
       -0.074834734 -0.023511898 -0.11716224 -0.24879311
000130 4a ae 89 3e 2a ac 92 3e b5 8d 79 be f9 63 06 3f
       0.26890785 0.28646976 -0.24370463 0.52496296
000140 2e 2c 42 be 4b 09 43 be 8a 6b f9 be 2c 98 11 be
       -0.18962166 -0.19046514 -0.48714858 -0.14218205
000150 51 7d 11 bc b2 ea 27 be 57 d9 49 bd db d5 1c be
       -0.008879975 -0.16398123 -0.049279537 -0.15315954
000160 e1 5a c2 be c9 9e a7 be 77 67 39 3e 39 c4 5b bb
       -0.3795996 -0.3273833 0.18105875 -0.0033533706
000170 dd 7f a9 39 b7 a1 39 3d 36 df 58 be a3 87 b7 3d
       0.00032329457 0.04532024 -0.21178898 0.089614175
000180 ef 3e 34 be f6 17 81 3e e9 68 6a 3d f4 f9 a2 bd
       -0.17602132 0.25213593 0.057228956 -0.07957831
000190 04 41 b9 3e 63 52 ce be ae 8b 38 3e 62 63 3d 3e
       0.36182415 -0.4029723 0.18022034 0.18494943
0001a0 d8 9f ad 3e e8 1d 00 3d 18 c7 86 be 76 16 0b bf
       0.33911014 0.03127852 -0.2632377 -0.5433115
0001b0 82 cd 0a 3f f4 a3 5f bc 1c 53 af be 5d 2f 08 3e
       0.5421983 -0.013649929 -0.34243095 0.13299318
0001c0 77 b6 88 3e 08 35 fc 3c e5 dd 13 bf 5f 3c 14 bf
       0.2670171 0.030787006 -0.5776046 -0.5790462
0001d0 54 1d ad 3e 37 5d 31 bd 44 92 45 be 9a b2 af 3e
       0.33811438 -0.043301787 -0.19294077 0.3431595
0001e0 2c 62 37 3c 6e 05 4a 3e 09 ac 46 bf c6 df 35 be
       0.01119284 0.19728634 -0.77606255 -0.17761144
0001f0 09 f0 54 bd 0b c6 a0 3e 39 13 b3 3e 8a 5c 86 bd
       -0.051986728 0.31401095 0.34975603 -0.06560619
000200 7e 10 a6 3e c3 6a bb be ce e3 8a 3e 68 f4 63 3e
       0.32434458 -0.3660489 0.27126926 0.22261202
000210 a5 d3 a5 be fe 43 01 bf 8f 8f 8d bc d3 74 83 3c
       -0.32388034 -0.5049437 -0.017280368 0.016046917
000220 74 3d 8d be 4f 09 dd be 8d 5a d1 be 04 3b a8 3e
       -0.27585948 -0.43171164 -0.40889397 0.32857525
000230 4e 3d 65 be b8 bd 01 be cc ef 9c ba f6 a1 86 bc
       -0.22386667 -0.12670028 -0.001197332 -0.01643465
000240 ee d9 6d 3e 24 e1 4c be 61 29 17 3f c4 cb a9 be
       0.23227665 -0.2000776 0.59047514 -0.33163273
000250 37 02 51 3e 0c f9 3e 3e 5a ae 51 be 1e bf e1 3c
       0.20411001 0.18649691 -0.20476666 0.027556952
000260 d2 95 b7 3e a7 20 66 3e 35 2a 20 bd 00 59 3a 3b
       0.3585649 0.22473393 -0.03910275 0.0028434396
000270 28 be db be 40 07 fd 3c 02 56 a3 3d 27 11 a4 3e
       -0.42918515 0.030887246 0.07975389 0.32044336
000280 c8 2e 63 3d a4 a4 77 be 88 68 8a 3e 8e 11 31 3d
       0.055464536 -0.24183899 0.27032876 0.043229632
000290 73 50 cf 3e 7e 10 9f bc d3 63 b3 be 90 72 0a bf
       0.40491065 -0.019417044 -0.35037097 -0.5408106
0002a0 f0 b6 d8 bd 91 50 a7 bc df 4d 0b bf 09 c9 e5 bb
       -0.105817676 -0.02042416 -0.54415697 -0.0070124906
0002b0 54 21 f8 3c 6c 35 8c 3e 66 9a 4a bc 8a 10 8e 3e
       0.03028933 0.27384508 -0.012365913 0.27746993
0002c0 36 c1 81 3e c1 3f 30 3e d1 92 b9 be 6a fd aa bd
       0.2534272 0.1721182 -0.36244825 -0.08349116
0002d0 34 95 85 be d3 a0 ee 3d 18 ee 98 3e 17 b0 72 be
       -0.26090395 0.116517685 0.2986915 -0.23699985
0002e0 78 d7 69 3e 96 df 82 be 91 57 f0 be ac 5f 9e 3e
       0.22836101 -0.25561208 -0.46941808 0.30932367
0002f0 21 14 8e bd 46 56 36 3e 60 fd 2b b8 39 a5 1d be
       -0.06937433 0.17806348 -4.100555e-05 -0.15395059
000300 cc a0 85 bb 6d a4 83 3d f1 40 94 3d db c2 df be
       -0.0040780064 0.06427846 0.07238949 -0.4370335
000310 7e ac a0 be b2 f6 c9 bd cc 56 b8 be 21 99 0b be
       -0.313816 -0.098615065 -0.3600372 -0.13632633
000320 65 6f 84 3e 08 d8 4c bd 74 87 f9 be 89 7a be be
       0.25866237 -0.05001071 -0.48736155 -0.37202862
000330 e4 c1 d2 3c 14 ec 25 be 31 6f 78 bb 14 03 38 3e
       0.02572722 -0.16203338 -0.0037908072 0.17969924
000340 8c 8f 82 bd 9e 3a ba bd 46 b0 61 bb 46 84 2e 3d
       -0.06375036 -0.090932116 -0.0034437343 0.042606615
000350 03 92 25 be e6 8a d2 be fe 80 d1 3d c8 77 ea be
       -0.1616898 -0.41121596 0.102296814 -0.4579451
000360 96 59 43 be 2a fb de bb 60 6b 80 3e 48 d9 18 be
       -0.19077143 -0.0068048434 0.2508192 -0.14926636
000370 f9 78 de bd 12 76 96 be b6 a8 92 3e 0a f1 ac 3e
       -0.108629175 -0.29386955 0.2864434 0.33777648
000380 ed 33 1c be 98 0d 38 bd bb a6 51 be 85 73 c3 be
       -0.15254183 -0.04493484 -0.20473759 -0.38174072
000390 7a ff cc 3e 65 7a 02 3d 35 62 ae 3e 7d c9 e1 bd
       0.40038663 0.031855006 0.340593 -0.11024759
0003a0 76 f9 b1 be e0 b4 3a 3d 71 8a 79 be d6 0f 61 bc
       -0.34760636 0.045582652 -0.24369217 -0.013736686
0003b0 7c ac b6 be 08 f6 80 bd bc 65 a9 bd ac 30 00 3f
       -0.3567847 -0.06296927 -0.082713574 0.5007427
0003c0 36 66 b7 3d ec 0e 8d 3e 9a f8 dc be ea 6c 3a bf
       0.08955042 0.27550447 -0.43158418 -0.7282244
0003d0 d7 7a d4 3c c9 bd 85 be c5 cc fc bd 18 56 8f bb
       0.02593748 -0.26121357 -0.12343744 -0.004374277
0003e0 ee 4b 07 3e 89 37 99 3a a7 7d 9a 3e c5 6c 44 bd
       0.13212559 0.0011689524 0.3017399 -0.047955293
0003f0 87 76 7f 3e 72 97 c3 bc de c1 ba 3e 13 5f 05 bf
       0.24947558 -0.023875926 0.36476034 -0.52098197

linear2.bias f4 [3]
000000 ba af a5 3e 8a 46 e9 3c 50 65 9a ba
       0.3236063 0.028476018 -0.0011779461
