model/model.pth (torch, 17216 bytes, 4 tensors)

linear1.weight f4 [256, 11]
-0.5396604 0.34495357 -0.04194288 -0.0026767915 0.24679549 -0.53416157 0.21275352 0.32864597
0.27510285 -0.45342627 0.1520468 0.05187666 0.049772132 -0.5546963 -0.1701961 0.2768607
-0.27471754 0.036709942 0.3008642 -0.28760234 -0.1291008 -0.09833459 0.175574 0.085837185
0.2577709 0.3118389 -0.50781983 -0.46439695 -0.08116657 -0.3651836 0.40906373 0.35163862
-0.11430201 -0.15052478 0.82670736 0.005991628 0.124877945 -0.6169602 0.34808668 0.13965479
0.07993525 -0.63925934 0.024338847 0.23462527 0.15024024 0.29737726 0.5989877 0.10192805
0.08806681 0.0009890328 0.008695796 0.41495308 0.4633164 0.37946984 0.3498672 0.28174502
0.34712073 0.6512941 -0.40955168 0.08476092 -0.3233373 -0.03197751 0.30933347 -0.20372277
-0.07502322 0.052976567 -0.04703152 -0.08510591 -0.21780129 0.016839476 0.027007163 0.00784409
-0.27242646 -0.20851539 -0.16404907 -0.19974947 0.24637592 0.54942805 -0.47861573 0.16134693
-0.14551048 0.26909104 0.060165633 -0.27362472 -0.03131082 -0.37754938 -0.14515987 0.20817882
0.11106027 0.03540571 0.55918276 0.08513831 -0.256996 -0.07636555 0.0729302 0.16277432
0.38804162 0.30812314 -0.0006883109 -0.1128897 -0.27772593 0.31968516 0.095501795 -0.18015085
-0.03470037 -0.21979265 -0.30160612 -0.32871464 -0.09881258 0.20432407 0.54449314 -0.33530977
-0.21313876 0.3418221 0.1055358 0.09689057 0.063220404 -0.14909893 -0.06428298 0.17420009
0.13299586 -0.29532212 -0.16408974 -0.19544283 0.24895643 0.19294675 -0.14135295 -0.4613429
0.18397877 0.27237988 -0.41775167 -0.42998782 0.12894662 0.16187456 0.21078025 -0.4113714
0.044422496 -0.23571087 0.079076156 0.5757358 0.23335165 0.3712099 0.14579873 -0.18255071
0.10982369 0.2404013 0.4963965 -0.012712582 -0.3995517 -0.012417036 -0.47096688 -0.7239191
0.42904386 -0.017282452 -0.21770683 -0.18840791 -0.08000727 0.35515484 0.40068182 -0.38457257
-0.17627098 -0.76914746 -0.6504453 0.30999824 0.123353675 -0.07337928 0.25086457 0.042050157
-0.0056161624 -0.11991434 -0.19823991 -0.3138508 -0.060462594 -0.19134946 -0.15841644 -0.43567276
0.055936746 -0.13594879 -0.23407288 -0.119452424 -0.048656035 0.13548522 -0.000660519 0.4783773
0.33068436 0.2856757 0.42004395 0.4336404 -0.22158243 -0.34063962 0.033300307 -0.09478355
0.15022554 0.17563806 -0.3873616 -0.57554847 0.03871763 0.17876484 -0.27943847 -0.62210107
-0.08917094 -0.077893704 -0.43077564 -0.22011289 0.3295217 -0.056514315 0.4809702 0.17441447
-0.2835739 -0.32139996 -0.70370656 0.7053213 0.17293812 0.27952325 0.16630213 0.09248709
-0.1367288 -0.3754012 -0.22088982 -0.20060799 0.11115237 -0.049192138 -0.6903642 -0.22629815
-0.30167943 -0.18649991 -0.0047305627 0.10583519 0.17720363 0.3302919 0.12653491 0.36944127
-0.013627237 0.39963818 -0.09061127 -0.12717608 -0.019028643 -0.15119869 0.28417817 0.4341217
0.31834206 0.35962227 0.37319985 0.17145798 -0.6295626 0.31914473 -0.19627298 -0.28887966
-0.06828865 -0.4601343 0.06747549 0.106860906 0.027693717 0.3699056 -0.00040139386 -0.6752627
00000000: 2f27 0abf c19d b03e 4ccc 2bbd 1c6d 2fbb
00000010: f5b7 7c3e d0be 08bf 0fdc 593e 4944 a83e
00000020: 48da 8c3e 7d27 e8be 28b2 1b3e 9f7c 543d
00000030: dddd 4b3d 9400 0ebf e347 2ebe b0c0 8d3e
00000040: c7a7 8cbe 2a5d 163d df0a 9a3e 9d40 93be
00000050: 0033 04be a563 c9bd acc9 333e 68cb af3d
00000060: 8cfa 833e 59a9 9f3e 7b00 02bf 70c5 edbe
00000070: a93a a6bd 58f9 babe cd70 d13e fa09 b43e
00000080: 2c17 eabd 2b23 1abe 18a3 533f 6b55 c43b
00000090: 02c0 ff3d 1bf1 1dbf 6b38 b23e aa01 0f3e
000000a0: 18b5 a33d 80a6 23bf 4362 c73c 9b41 703e
000000b0: 94d8 193e d541 983e 4257 193f a7bf d03d
000000c0: 5f5c b43d 6fa2 813a d078 0e3c bb74 d43e
000000d0: cf37 ed3e df49 c23e cb21 b33e e240 903e
000000e0: cfb9 b13e 36bb 263f c2b0 d1be 2297 ad3d
000000f0: 778c a5be d9fa 02bd f560 9e3e b49c 50be
00000100: c6a5 99bd f5fd 583d 20a4 40bd 024c aebd
00000110: 4d07 5fbe f1f2 893c 203e dd3c 8084 003c
00000120: 7b7b 8bbe 0f85 55be 7bfc 27be 208b 4cbe
00000130: f849 7c3e 51a7 0c3f 1f0d f5be 2138 253e
00000140: b300 15be 4dc6 893e 3d70 763d 8a18 8cbe
00000150: c63f 00bd 274e c1be caa4 14be d42c 553e
00000160: 9173 e33d 9405 113d 9a26 0f3f ff5c ae3d
00000170: fb94 83be 8b65 9cbd 6e5c 953d 50ae 263e
00000180: 64ad c63e 51c2 9d3e c36f 34ba b732 e7bd
00000190: 1832 8ebe c6ad a33e 7296 c33d 7779 38be
000001a0: fa21 0ebd 5311 61be 1e6c 9abe 494d a8be
000001b0: 405e cabd 543a 513e e763 0b3f b9ad abbe
000001c0: 0c41 5abe 4e03 af3e 2723 d83d 906e c63d
000001d0: b379 813d 64ad 18be cca6 83bd 8261 323e
000001e0: 1130 083e 7634 97be 2407 28be 2a22 48be
000001f0: 6fee 7e3e d593 453e d4be 10be 2335 ecbe
00000200: ee64 3c3e 6075 8b3e 8ce3 d5be 5d27 dcbe
00000210: 950a 043e 72c2 253e c7d6 573e 469f d2be
00000220: 5df4 353d 315e 71be aef2 a13d 6c63 133f
00000230: bcf3 6e3e 390f be3e 434c 153e 93ee 3abe
00000240: 3eeb e03d c22b 763e af27 fe3e 6f48 50bc
00000250: 0a92 ccbe d370 4bbc 9222 f1be c352 39bf
00000260: a3ab db3e ee93 8dbc 8aee 5ebe 01ee 40be
00000270: dada a3bd dbd6 b53e 2b26 cd3e b2e6 c4be
00000280: 6180 34be d9e6 44bf 9583 26bf 17b8 9e3e
00000290: daa0 fc3d e047 96bd 5271 803e c93c 2c3d
000002a0: c907 b8bb a695 f5bd 67ff 4abe 0db1 a0be
000002b0: a0a7 77bd 1df1 43be eb37 22be 8010 dfbe
000002c0: ee1d 653d 2936 0bbe cdb0 6fbe 79a3 f4bd
000002d0: 8d4b 47bd a3bc 0a3e ae26 2dba dfed f43e
000002e0: 764f a93e 1644 923e 0010 d73e 1d06 de3e
000002f0: 81e6 62be 5168 aebe e765 083d e11d c2bd
00000300: b9d4 193e 77da 333e 4254 c6be 2557 13bf
00000310: 6196 1e3d 210e 373e 8f12 8fbe 0442 1fbf
00000320: 419f b6bd bc86 9fbd a08e dcbe 4665 61be
00000330: 11b7 a83e 8e7b 67bd ba41 f63e b599 323e
00000340: 9930 91be 898e a4be 1d26 34bf f08f 343f
00000350: b116 313e ac1d 8f3e 1b4b 2a3e df69 bd3d
00000360: a202 0cbe 9634 c0be f130 62be 2e6c 4dbe
00000370: dba3 e33d b27d 49bd b5bb 30bf b4ba 67be
00000380: ba75 9abe d5f9 3ebe d602 9bbb 1fc0 d83d
00000390: de74 353e 051c a93e 5e92 013e 6827 bd3e
000003a0: c644 5fbc 609d cc3e 6792 b9bd 723a 02be
000003b0: f5e1 9bbc d4d3 1abe cd7f 913e 3345 de3e
000003c0: bbfd a23e 6920 b83e 0d14 bf3e ae92 2f3e
000003d0: 042b 21bf f066 a33e c9fb 48be 09e8 93be
000003e0: ebda 8bbd b996 ebbe 9730 8a3d e4d9 da3d
000003f0: efdd e23c 4464 bd3e 2c72 d2b9 04de 2cbf

linear1.bias f4 [256]
0.29932964 -0.15979709 0.00709203 0.21251906 -0.51828253 -0.026981412 -0.27509004 0.015809394
-0.33816564 -0.28796676 -0.21077454 0.17798492 -0.31898385 -0.16941133 0.061160818 -0.21600367
-0.3845649 0.48429266 -0.079640165 0.54200196 -0.2502556 -0.31677526 0.03587332 -0.14367256
-0.15137418 0.8087503 0.19315724 -0.29520214 -0.37624782 -0.2802716 0.19082738 0.12340546
-0.0034816742 -0.086960725 -0.357861 -0.08066285 -0.27829283 -0.290353 0.09108347 -0.21614864
-0.03962876 -0.3145616 -0.17720109 -0.068494275 0.027299128 -0.2506584 0.16161038 -0.35752136
-0.3426779 -0.23476158 -0.14184766 0.2956639 -0.4131969 -0.3280269 -0.0417437 0.07312391
-0.15021744 -0.24514794 -0.060201943 -0.21892405 -0.21711375 -0.1173331 -0.14522967 -0.23367493
-0.10244949 -0.10698071 -0.13527718 0.20065588 0.2773729 -0.21251245 -0.20577274 0.06669787
0.49356872 -0.24334218 -0.07167548 -0.047707018 -0.15010916 -0.09338604 0.15811588 -0.01975501
-0.28987956 -0.029836709 -0.43506998 -0.1528369 -0.03325196 -0.20392843 -0.022315275 0.028293101
-0.2946498 -0.07200784 0.36099666 -0.16580324 -0.009746341 0.11897857 -0.03907517 -0.15314636
0.61451584 -0.25363833 -0.32322335 -0.39109254 -0.13714735 0.05245968 -0.16961709 -0.18051918
-0.12190706 -0.26656818 -0.37198523 -0.03456602 0.001355542 -0.1960911 0.084345914 0.23922463
0.058989726 -0.31814396 -0.43057773 -0.00677282 0.092138276 0.030784398 -0.22145344 -0.03437221
0.17050385 -0.13816977 -0.112648375 -0.08410714 -0.3647188 -0.23276877 -0.26232114 -0.34667295
0.13156602 -0.04893916 -0.45239028 -0.102377914 -0.07569547 -0.27041456 0.17080377 0.040480435
-0.12500392 0.059860427 -0.055348415 -0.1627494 0.049633894 0.059896093 0.5827165 -0.18788475
-0.42497477 0.26467654 0.68063956 -0.19252716 0.03420665 -0.19625618 -0.13697803 0.029950922
0.18412803 -0.1993704 -0.306955 -0.1621077 -0.047250316 -0.11045207 -0.1366568 0.3613922
0.028920704 -0.42594716 -0.14849582 -0.020452898 -0.25874856 -0.12343799 -0.304029 -0.34601498
0.15672132 -0.25726813 -0.13417907 -0.41489184 0.024477577 0.010093232 -0.05453637 0.15072761
-0.23509109 -0.30469653 -0.18276392 -0.20611453 -0.024418065 -0.06520277 -0.28022128 -0.13372192
0.030388763 -0.26496577 -0.1773298 -0.24134755 -0.200647 -0.1507878 -0.104200736 0.17927614
0.41256514 -0.20146635 -0.110640764 -0.19677098 0.29550827 -0.25135377 -0.5239611 0.015464502
-0.07247828 -0.2772778 -0.41273054 -0.48113483 0.2795512 -0.17757565 -0.19701275 -0.4922918
-0.33601585 0.0054085646 -0.23079005 -0.07609836 -0.38330257 -0.14546873 -0.34775302 -0.37036288
-0.08933083 0.258024 -0.19396959 -0.028423743 -0.3813091 0.2500826 0.5146997 0.21846761
-0.018347489 -0.0024410512 0.08653001 0.03401616 0.030038517 -0.3474489 -0.082816556 -0.119580165
1.195515 -0.09691453 -0.10605931 -0.33221373 -0.10241171 -0.09639419 -0.014750024 -0.013623169
-0.33553508 0.010915471 0.16467571 -0.17910643 -0.20076917 0.45243028 0.31394362 0.1514549
-0.2161657 -0.1249117 -0.27074647 -0.301156 -0.21564159 -0.022889271 -0.3302436 0.02431392
00000000: bc41 993e d9a1 23be 4264 e83b 999e 593e
00000010: 2aae 04bf 1f08 ddbc 9ad8 8cbe b482 813c
00000020: 0c24 adbe 6170 93be 48d5 57be ae41 363e
00000030: da51 a3be 2a7a 2dbe c483 7a3d 1130 5dbe
00000040: b1e5 c4be 35f5 f73e 621a a3bd a4c0 0a3f
00000050: 8121 80be 5e30 a2be e7ef 123d e61e 13be
00000060: d501 1bbe 420a 4f3f 03cb 453e bc24 97be
00000070: 8ea3 c0be c27f 8fbe 4168 433e 00bc fc3d
00000080: cd2c 64bb 7718 b2bd 8f39 b7be 9032 a5bd
00000090: 667c 8ebe 26a9 94be f889 ba3d 1256 5dbe
000000a0: c451 22bd 380e a1be 3474 35be ba46 8cbd
000000b0: 6ca2 df3c 4c56 80be 317d 253e 0a0d b7be
000000c0: 7a73 afbe 5765 70be 8340 11be 4261 973e
000000d0: 8b8e d3be 24f3 a7be 71fb 2abd fdc1 953d
000000e0: 9ad2 19be 1008 7bbe 5096 76bd a02d 60be
000000f0: 1153 5ebe 564c f0bd 16b7 14be 7b48 6fbe
00000100: 0ad1 d1bd b418 dbbd 1a86 0abe bc78 4d3e
00000110: d203 8e3e dd9c 59be 17b6 52be e598 883d
00000120: 0ab5 fc3e b12e 79be 98ca 92bd 6f68 43bd
00000130: 37b6 19be 2e41 bfbd 21e9 213e 42d5 a1bc
00000140: 186b 94be 1d6c f4bc 7ec1 debe 4781 1cbe
00000150: 3533 08bd 9dd2 50be 86ce b6bc efc6 e73c
00000160: 57dc 96be d978 93bd 8ed4 b83e 53c8 29be
00000170: 1eaf 1fbc 09ab f33d 490d 20bd 66d2 1cbe
00000180: e950 1d3f e2dc 81be 887d a5be 483d c8be
00000190: 5b70 0cbe f6df 563d 1ab0 2dbe 05da 38be
000001a0: 69aa f9bd a07b 88be d974 bebe 1995 0dbd
000001b0: 71ac b13a 1bcc 48be 8dbd ac3d 4df7 743e
000001c0: 369f 713d c4e3 a2be af74 dcbe 88ee ddbb
000001d0: feb2 bc3d 902f fc3c b1c4 62be e0c9 0cbd
000001e0: 9098 2e3e 607c 0dbe 31b4 e6bd 5d40 acbd
000001f0: 6cbc babe f05a 6ebe f54e 86be 1e7f b1be
00000200: 3eb9 063e 6e74 48bd b39f e7be 83ab d1bd
00000210: 3a06 9bbd c773 8abe 2fe7 2e3e d0ce 253d
00000220: 0701 00be 3530 753d 05b5 62bd c7a7 26be
00000230: e94c 4b3d 9b55 753d e92c 153f dc64 40be
00000240: 4b96 d9be af83 873e 653e 2e3f d725 45be
00000250: 461c 0c3d 61f7 48be f843 0cbe a35b f53c
00000260: 0f8c 3c3e c127 4cbe 3529 9dbe 90ff 25be
00000270: 8c89 41bd b234 e2bd c3ef 0bbe 6608 b93e
00000280: 1deb ec3c bf15 dabe 4a0f 18be d68c a7bc
00000290: b17a 84be 0fcd fcbd b0a9 9bbe e028 b1be
000002a0: 8e7b 203e a6b8 83be 3d66 09be b46c d4be
000002b0: 3385 c83c 155e 253c 8761 5fbd 5758 1a3e
000002c0: b8bb 70be 2f01 9cbe 7726 3bbe b00f 53be
000002d0: 6508 c8bc 0889 85bd 2a79 8fbe 66ee 08be
000002e0: dbf1 f83c 98a9 87be f195 35be d023 77be
000002f0: 6876 4dbe 1e68 1abe 3267 d5bd 2a94 373e
00000300: bd3b d33e 324d 4ebe a097 e2bd 557e 49be
00000310: dc4c 973e 71b1 80be 5122 06bf d35e 7d3c
00000320: 7e6f 94bd 5bf7 8dbe 6b51 d3be 4e57 f6be
00000330: 5621 8f3e 64d6 35be b6bd 49be ac0d fcbe
00000340: 450a acbe 543a b13b 3a54 6cbe 75d9 9bbd
00000350: 3c40 c4be c1f5 14be af0c b2be 34a0 bdbe
00000360: 15f3 b6bd b91b 843e f79f 46be e9d8 e8bc
00000370: f23a c3be d40a 803e 5cc3 033f f9b5 5f3e
00000380: 794d 96bc 0bfa 1fbb a536 b13d 8754 0b3d
00000390: 5613 f63c d2e4 b1be ba9b a9bd 72e6 f4bd
000003a0: a306 993f 207b c6bd a035 d9bd eb17 aabe
000003b0: 3bbd d1bd 516a c5bd 16aa 71bc b633 5fbc
000003c0: 41cb abbe ced6 323c c0a0 283e ad67 37be
000003d0: 6f96 4dbe f1a4 e73e 38bd a03e fe16 1b3e
000003e0: 8b5a 5dbe b5d1 ffbd 489f 8abe 1f31 9abe
000003f0: 26d1 5cbe 4882 bbbc b015 a9be fc2d c73c

linear2.weight f4 [3, 256]
0.2858196 -0.25076625 -0.36786783 0.37721667 -0.16382897 -0.09846385 0.03014813 -0.098123476
-0.06600412 -0.0013796175 -0.017487979 0.36428517 -0.1720943 -0.2981649 -0.38007772 -0.024789322
-0.15807973 0.29892328 -0.40911016 0.34473267 -0.05443081 -0.12802169 -0.07635589 -0.18799458
0.008828921 0.34433037 0.09489425 -0.025408104 -0.23512961 -0.042639457 0.11797706 0.03591493
-0.5605921 0.03716337 -0.0704691 -0.08485016 0.026503328 0.1398471 0.030412003 -0.04971287
-0.46750724 -0.19037363 -0.43514913 0.036480416 -0.3095769 -0.03708729 -0.28285396 -0.047673807
-0.10804245 -0.10545109 -0.30049413 0.29197758 0.10909157 -0.030866528 0.32212484 0.13472547
-0.028172627 0.028138235 0.1846366 -0.37587148 -0.1238287 -0.06679247 -0.1433525 -0.17400797
0.31891572 -0.000726765 0.00020374592 -0.38004413 0.6474755 -0.420051 -0.6899148 -0.33331674
0.3344179 -0.20897624 -0.4293847 -0.008054163 -0.03488989 0.09914222 0.27932358 0.1896761
-0.25981706 0.022475773 0.23325185 -0.04430919 -0.15577641 0.4344453 -0.27043846 0.024304211
0.013300578 -0.20887753 0.28417024 0.0039243223 -0.30011 0.31617212 0.23523027 -0.09459207
0.43678838 -0.0031221772 -0.29315653 -0.02095877 -0.018516824 -0.17342508 -0.001648438 -0.18312873
0.0042502466 -0.26323515 -0.04632236 0.004399555 -0.07033208 0.034977917 0.05746668 0.36268792
-0.47890362 0.042771652 -0.090456925 0.023507454 0.029826524 0.21292867 -0.12352836 -0.51254267
0.46794614 0.33687615 -0.27666837 0.22499226 -0.04125345 -0.07346948 -0.22029464 -0.029873887
-0.047289833 -0.15707695 -0.33699185 -0.03662003 -0.19621919 -0.1921072 0.025284562 0.039824825
-0.4902344 0.3564945 -0.028039541 -0.08904797 0.014422834 0.018932138 0.41297904 -0.16077942
0.040832646 0.3625349 0.34628978 -0.0536999 0.031805333 -0.6315733 -0.8927224 0.4702098
0.5453564 -0.052966304 -0.08477308 -0.88859475 0.02935078 0.0035291112 0.0861851 0.27465475
0.29926047 -0.02160416 -0.004409079 -0.0042218547 -0.4237176 0.014998236 0.011891104 -0.089589365
0.21068078 -0.013167195 -0.10163119 -0.23759785 0.047699835 -0.011653223 0.008261816 0.44742328
-0.14234374 -0.09255994 0.004420749 -0.021642666 -0.2977735 0.00031999397 0.055164874 -0.59893405
0.60228753 -0.0087471055 -0.47268853 -0.00620292 -0.2995633 0.27327058 -0.17514047 0.6518049
0.2647863 -0.25154635 -0.023175234 -0.08360825 0.378394 -0.030825492 0.16836227 0.023126174
-0.0085571045 -0.084090345 0.0968837 -0.0009691184 0.5470372 -0.1698004 -0.2639612 -0.44683954
-0.20670667 -0.14245024 -0.2502014 -0.015804812 -0.08961958 -0.0039589824 -0.10958854 0.009101327
0.035225485 0.15944067 -0.09217481 -0.023950392 -0.2898781 0.27064836 0.36952254 0.17657372
-0.42823035 0.001794452 0.26076663 0.30243704 0.106399626 0.031168498 -0.0030945383 -0.13205142
0.31747997 -0.30344012 0.3376136 0.032502748 -0.54115367 -0.15604329 0.07370676 0.14216676
0.002509695 0.5321504 0.23621723 -0.18988752 -0.24594277 0.4229675 0.092712484 0.33362803
-0.018170593 -0.07847038 0.006888002 0.03307334 -0.35700893 0.46025586 -0.09125806 0.08216375
00000000: f256 923e 6f64 80be 2c59 bcbe 8b22 c13e
00000010: c8c2 27be 6aa7 c9bd 36f9 f63c f6f4 c8bd
00000020: 2b2d 87bd 48d4 b4ba f342 8fbc 9683 ba3e
00000030: 7d39 30be 12a9 98be 8c99 c2be fa12 cbbc
00000040: a7df 21be 790c 993e e376 d1be cd80 b03e
00000050: d7f2 5ebd 1e18 03be 7a60 9cbd a781 40be
00000060: 2ea7 103c 124c b03e eb57 c23d a824 d0bc
00000070: d1c5 70be b6a6 2ebd f59d f13d 891b 133d
00000080: f782 0fbf 9e38 183d 1a52 90bd ecc5 adbd
00000090: 821d d93c 1434 0f3e 9822 f93c b99f 4bbd
000000a0: 1c5d efbe 4ef1 42be decb debe 7d6c 153d
000000b0: dd80 9ebe d8e8 17bd 3cd2 90be 9c45 43bd
000000c0: 5c45 ddbd bef6 d7bd 5eda 99be 167e 953e
000000d0: 676b df3d cddb fcbc 8ced a43e 79f5 093e
000000e0: 48ca e6bc 2882 e63c 6011 3d3e 3a72 c0be
000000f0: e799 fdbd 7eca 88bd ffca 12be 252f 32be
00000100: ec48 a33e 6084 3eba a1a4 5539 2595 c2be
00000110: f4c0 253f ed10 d7be 429e 30bf 7ea8 aabe
00000120: d338 ab3e defd 55be 50d8 dbbe 9cf5 03bc
00000130: b4e8 0ebd 140b cb3d 8003 8f3e 743a 423e
00000140: be06 85be 1d1f b83c 93d9 6e3e 8e7d 35bd
00000150: da83 1fbe 9d6f de3e e976 8abe a019 c73c
00000160: abea 593c fee3 55be c37e 913e 9a97 803b
00000170: 05a8 99be 50e1 a13e 34e0 703e 7db9 c1bd
00000180: baa2 df3e 719d 4cbb 9d18 96be bab1 abbc
00000190: 98b0 97bc 5896 31be 6710 d8ba 1986 3bbe
000001a0: a745 8b3b c2c6 86be 84bc 3dbd 242a 903b
000001b0: 440a 90bd 0145 0f3d 2e62 6b3d 3bb2 b93e
000001c0: db32 f5be 5431 2f3d 7b41 b9bd b492 c03c
000001d0: c156 f43c f909 5a3e 70fc fcbd ff35 03bf
000001e0: a396 ef3e 087b ac3e 7aa7 8dbe 5f64 663e
000001f0: 61f9 28bd 2b77 96bd eb94 61be 15ba f4bc
00000200: fcb2 41bd c8d8 20be 328a acbe e2fe 15bd
00000210: afed 48be c0b7 44be 9221 cf3c 5b1f 233d
00000220: 0100 fbbe 7286 b63e 2eb3 e5bc c85e b6bd
00000230: c04d 6c3c 9217 9b3c fd71 d33e 5ca3 24be
00000240: 2240 273d 2d9e b93e e54c b13e 6df4 5bbd
00000250: 4f46 023d caae 21bf 7589 64bf 57bf f03e
00000260: 7a9c 0b3f 32f3 58bd 829d adbd f27a 63bf
00000270: 0c71 f03c a948 673b d081 b03d 8c9f 8c3e
00000280: ab38 993e 35fb b0bc 097a 90bb 7c57 8abb
00000290: 83f1 d8be 29bb 753c e8d2 423c a17a b7bd
000002a0: b4bc 573e 38bb 57bc 0324 d0bd da4c 73be
000002b0: e760 433d 29ed 3ebc 915c 073c aa14 e53e
000002c0: 8fc2 11be 1190 bdbd eedb 903b f64b b1bc
000002d0: c575 98be ddc4 a739 90f4 613d be53 19bf
000002e0: 842f 1a3f 0550 0fbc 3b04 f2be dd41 cbbb
000002f0: 5c60 99be 1fea 8b3e 0658 33be b0dc 263f
00000300: 1292 873e afca 80be fdd9 bdbc cd3a abbd
00000310: dcbc c13e be85 fcbc 2967 2c3e 1a73 bd3c
00000320: 1933 0cbc 8f37 acbd f66a c63d 6f0c 7eba
00000330: a10a 0c3f 28e0 2dbe ec25 87be 27c8 e4be
00000340: eaaa 53be 7ade 11be 661a 80be 1879 81bc
00000350: 788a b7bd 5aba 81bb f56f e0bd bb1d 153c
00000360: 9948 103d 6a44 233e 26c6 bcbd 9d33 c4bc
00000370: e76a 94be 6c92 8a3e 0f32 bd3e becf 343e
00000380: 0241 dbbe d133 eb3a 3483 853e 07d9 9a3e
00000390: 0ce8 d93d 1455 ff3c bdcd 4abb 7d38 07be
000003a0: bc8c a23e 815c 9bbe b1db ac3e 9a21 053d
000003b0: 0c89 0abf d0c9 1fbe 92f3 963d 2a94 113e
000003c0: b279 243b 023b 083f eee2 713e e071 42be
000003d0: 6cd8 7bbe 328f d83e 0be0 bd3d 4bd1 aa3e
000003e0: 7fda 94bc 14b5 a0bd c0b4 e13b e977 073d
000003f0: e0c9 b6be a8a6 eb3e 81e5 babd 7845 a83d

linear2.bias f4 [3]
0.33669886 -0.054087263 0.106109254
00000000: cb63 ac3e 9b8a 5dbd cf4f d93d
